(三)图像识别与深度学习
目标：使用卷积神经网络（CNN）对图像数据进行分类，识别图像中是否包含特定物体或场景。
任务：
1．数据增强与预处理；
2．构建并训练CNN模型；
3．评估模型准确率与损失曲线；
4．对测试集进行预测并输出结果文件。

代码运行结果：
main1_cifar10.py

Layer (type)                Output Shape              Param #   
=================================================================
 conv2d (Conv2D)             (None, 32, 32, 32)        896       
                                                                 
 batch_normalization (BatchN  (None, 32, 32, 32)       128       
 ormalization)                                                   
                                                                 
 conv2d_1 (Conv2D)           (None, 32, 32, 32)        9248      
                                                                 
 batch_normalization_1 (Batc  (None, 32, 32, 32)       128       
 hNormalization)                                                 
                                                                 
 max_pooling2d (MaxPooling2D  (None, 16, 16, 32)       0         
 )                                                               
                                                                 
 dropout (Dropout)           (None, 16, 16, 32)        0         
                                                                 
 conv2d_2 (Conv2D)           (None, 16, 16, 64)        18496     
                                                                 
 batch_normalization_2 (Batc  (None, 16, 16, 64)       256       
 hNormalization)                                                 
                                                                 
 conv2d_3 (Conv2D)           (None, 16, 16, 64)        36928     
                                                                 
 batch_normalization_3 (Batc  (None, 16, 16, 64)       256       
 hNormalization)                                                 
                                                                 
 max_pooling2d_1 (MaxPooling  (None, 8, 8, 64)         0         
 2D)                                                             
                                                                 
 dropout_1 (Dropout)         (None, 8, 8, 64)          0         
                                                                 
 conv2d_4 (Conv2D)           (None, 8, 8, 128)         73856     
                                                                 
 batch_normalization_4 (Batc  (None, 8, 8, 128)        512       
 hNormalization)                                                 
                                                                 
 conv2d_5 (Conv2D)           (None, 8, 8, 128)         147584    
                                                                 
 batch_normalization_5 (Batc  (None, 8, 8, 128)        512       
 hNormalization)                                                 
                                                                 
 max_pooling2d_2 (MaxPooling  (None, 4, 4, 128)        0         
 2D)                                                             
                                                                 
 dropout_2 (Dropout)         (None, 4, 4, 128)         0         
                                                                 
 flatten (Flatten)           (None, 2048)              0         
                                                                 
 dense (Dense)               (None, 256)               524544    
                                                                 
 batch_normalization_6 (Batc  (None, 256)              1024      
 hNormalization)                                                 
                                                                 
 dropout_3 (Dropout)         (None, 256)               0         
                                                                 
 dense_1 (Dense)             (None, 10)                2570      
                                                                 
=================================================================
Total params: 816,938
Trainable params: 815,530
Non-trainable params: 1,408

Epoch 30/30
781/781 [==============================] - 47s 60ms/step - loss: 0.4757 - accuracy: 0.8365 - val_loss: 0.4281 - val_accuracy: 0.8579
测试集准确率: 0.8579

---------------------------------------------------------------------------------------
---------------------------------------------------------------------------------------
main_cifar100.py
  Layer (type)                Output Shape              Param #   
=================================================================
 sequential (Sequential)     (None, 32, 32, 3)         0         
                                                                 
 conv2d (Conv2D)             (None, 32, 32, 64)        1792      
                                                                 
 batch_normalization (BatchN  (None, 32, 32, 64)       256       
 ormalization)                                                   
                                                                 
 conv2d_1 (Conv2D)           (None, 32, 32, 64)        36928     
                                                                 
 batch_normalization_1 (Batc  (None, 32, 32, 64)       256       
 hNormalization)                                                 
                                                                 
 max_pooling2d (MaxPooling2D  (None, 16, 16, 64)       0         
 )                                                               
                                                                 
 dropout (Dropout)           (None, 16, 16, 64)        0         
                                                                 
 conv2d_2 (Conv2D)           (None, 16, 16, 128)       73856     
                                                                 
 batch_normalization_2 (Batc  (None, 16, 16, 128)      512       
 hNormalization)                                                 
                                                                 
 conv2d_3 (Conv2D)           (None, 16, 16, 128)       147584    
                                                                 
 batch_normalization_3 (Batc  (None, 16, 16, 128)      512       
 hNormalization)                                                 
                                                                 
 max_pooling2d_1 (MaxPooling  (None, 8, 8, 128)        0         
 2D)                                                             
                                                                 
 dropout_1 (Dropout)         (None, 8, 8, 128)         0         
                                                                 
 conv2d_4 (Conv2D)           (None, 8, 8, 256)         295168    
                                                                 
 batch_normalization_4 (Batc  (None, 8, 8, 256)        1024      
 hNormalization)                                                 
                                                                 
 conv2d_5 (Conv2D)           (None, 8, 8, 256)         590080    
                                                                 
 batch_normalization_5 (Batc  (None, 8, 8, 256)        1024      
 hNormalization)                                                 
                                                                 
 max_pooling2d_2 (MaxPooling  (None, 4, 4, 256)        0         
 2D)                                                             
                                                                 
 dropout_2 (Dropout)         (None, 4, 4, 256)         0         
                                                                 
 global_average_pooling2d (G  (None, 256)              0         
 lobalAveragePooling2D)                                          
                                                                 
 dense (Dense)               (None, 512)               131584    
                                                                 
 batch_normalization_6 (Batc  (None, 512)              2048      
 hNormalization)                                                 
                                                                 
 dropout_3 (Dropout)         (None, 512)               0         
                                                                 
 dense_1 (Dense)             (None, 100)               51300     
                                                                 
=================================================================
Total params: 1,333,924
Trainable params: 1,331,108
Non-trainable params: 2,816
Epoch 61/100
782/782 [==============================] - 53s 68ms/step - loss: 1.0229 - accuracy: 0.6970 - val_loss: 1.2905 - val_accuracy: 0.6470 - lr: 6.2500e-05
313/313 [==============================] - 1s 4ms/step
…
